weights0.npy (npy, 100480 bytes, 1 tensors)

array f8 [16, 784]
000000 30 53 25 9c c2 a1 b3 3f ec 27 3f 18 00 04 d3 3f
       0.07668701469567618 0.2971191632065018
000010 7e 34 eb 23 31 bf ee bf 08 ac 36 d4 b0 22 d6 3f
       -0.9608388616121741 0.34586735462170326
000020 3c 8d 4a fd 78 e1 dc 3f ee 07 a9 16 71 16 ef bf
       0.45126175628157106 -0.9714894716819324
000030 74 f7 05 b6 3b 02 d3 bf c2 d8 12 36 f3 df e9 bf
       -0.297011306531082 -0.8085876518369093
000040 22 25 18 8b b6 90 e9 bf 80 76 88 14 9a b3 dc bf
       -0.7989151684461471 -0.44846202855283224
000050 5e 66 52 68 42 00 e8 3f bc 0d 7b c2 d7 ae eb bf
       0.7500316655670749 -0.8650931166125058
000060 00 ff 4e 1f 7f 0e d0 bf 20 aa dc 84 8d 15 d8 bf
       -0.2508848005054318 -0.37631547903825613
000070 5e f5 74 d8 7f ca eb bf e6 b3 6e 98 90 9d e7 bf
       -0.8684691646264289 -0.7379839875408123
000080 9c 39 20 a5 6e 5a d2 bf 30 ce 60 19 f0 66 e4 3f
       -0.28676954389166 0.6375656600634496
000090 34 d5 59 ab e4 25 d1 bf 84 1c 29 3c 5e 0f da bf
       -0.26793781980025533 -0.4071879947191024
0000a0 fc 8a ec 63 84 9d e7 bf b8 67 55 ae cb a9 ce bf
       -0.7379781676903288 -0.23955675136931887
0000b0 6c bd 8a 86 21 6b d1 bf 30 32 79 a1 c3 94 db 3f
       -0.27216375483381827 0.43095484513176796
0000c0 e6 4f ba c4 50 33 eb bf 9e 73 88 cc 5d 67 ef bf
       -0.8500140993442045 -0.9813679690156396
0000d0 52 90 9a 84 c5 ef e3 bf 44 37 d4 00 ee c5 e6 3f
       -0.623018988601425 0.7116613403502261
0000e0 b0 f2 f9 35 ce ca c9 3f 68 9d 84 3b 33 34 e4 3f
       0.20150163302959845 0.6313720858060323
0000f0 54 c3 ef e5 b6 37 e0 bf 92 b8 71 a5 ad 25 e6 bf
       -0.5068010798405376 -0.6920994025547478
000100 5e 64 1d 1a a1 29 ef 3f b4 e9 25 c4 43 8d df 3f
       0.9738317022376 0.49299711375320077
000110 40 47 0c ba ae c3 de 3f a8 05 40 16 d0 0c cb 3f
       0.4806935135721808 0.2113285168307304
000120 30 5b 4c b4 30 0c bb 3f 2a 36 13 22 11 9b ec 3f
       0.10565475847066064 0.8939290681389072
000130 44 a1 13 dd 02 af d4 3f cc 16 bd 0d 38 4e e7 3f
       0.3231818350746105 0.7282982128460502
000140 9e 2f 4d 22 14 fd e6 3f 88 95 61 6d df ee e4 bf
       0.7183933896972012 -0.6541592727996184
000150 d0 5c 8e 3a e4 77 c9 bf d8 68 c0 86 d9 f7 e3 bf
       -0.1989712987822032 -0.6240050918452438
000160 c0 23 40 36 63 c6 94 bf cc c1 9b 06 ee cb d7 bf
       -0.020288038431349298 -0.37182188649515235
000170 90 d9 0e 63 46 ab ba bf 08 5c 59 7a 10 0f d9 3f
       -0.10417594831856136 0.3915444559874577
000180 28 60 05 36 59 d4 d7 3f b0 28 e9 a4 cc 54 e0 3f
       0.3723357226895154 0.5103514882005324
000190 84 44 2c 33 6d 1f dd bf 1c 2b 17 2a e8 d5 ee 3f
       -0.4550431251273681 0.9636116811828717
0001a0 20 d7 9c 07 a3 6c dc 3f 28 95 93 c9 69 73 c9 bf
       0.4441306661932334 -0.19883463232614784
0001b0 12 3c 01 c3 84 8b eb bf 9c 9c 83 a8 f3 03 eb bf
       -0.8607810791671702 -0.84423239624893
0001c0 b4 4c b5 fa 15 83 e6 bf 94 53 07 50 c9 ec e1 3f
       -0.7035016914982379 0.5601545870837179
0001d0 88 d6 3d 4f b1 2e cc bf 68 d4 32 ee 40 e4 eb 3f
       -0.22017494553772488 0.8716129925075053
0001e0 86 5d 6c c0 dd 46 ec 3f 10 1d 2a ce 56 1a ca bf
       0.8836506613032931 -0.2039288050329806
0001f0 90 a5 c9 2e 88 3a cc bf 48 84 ab 76 20 35 c4 bf
       -0.22053625378184138 -0.15787130159790963
000200 48 a0 79 c5 71 48 d8 bf b4 a0 38 d9 5b 4a e5 bf
       -0.37942165646245885 -0.665326999912415
000210 80 e7 ce b0 6d 74 b1 3f f0 9f da 4a 4d 9a df 3f
       0.06818280760390216 0.49379284200631357
000220 64 23 c2 f8 ba 87 d9 3f 80 72 d1 8b ab ef 95 3f
       0.3989093236237322 0.021422081383536185
000230 c4 28 63 92 1e 7a e6 bf b4 70 5f 8f fb 16 d0 3f
       -0.7024071559074163 0.25140275002719226
000240 20 01 40 4e 29 57 a1 3f ee c7 5b 2c a5 57 eb 3f
       0.03386811332893758 0.8544488779427846
000250 b0 da 4f e2 f0 b1 c8 bf 4c e4 f6 78 32 5b ea bf
       -0.19293032694232215 -0.8236324656092022
000260 c4 ec 6a 33 bc ac da bf ca ce 24 51 59 46 ed bf
       -0.4167929174543128 -0.9148375115241489
000270 f0 06 3f d3 16 83 c1 bf a4 22 b3 d4 46 a9 ed bf
       -0.13681302370792237 -0.9269136575977268
000280 8c 50 98 98 9f 35 e7 bf c8 77 f6 70 56 a5 c3 3f
       -0.7252958279009518 0.15348320499191304
000290 84 49 05 7b 3c d6 d0 bf 18 f3 ac 64 ab 71 d9 bf
       -0.2630759431241574 -0.39756283599472075
0002a0 80 33 1b 94 da a3 8b bf a4 e2 3c 5e 97 2a ef 3f
       -0.01349612011417789 0.9739491310675317
0002b0 70 65 d1 ec 4b ed ca bf f4 a4 bd d3 5a 4e e3 bf
       -0.21036671698929466 -0.603314794117209
0002c0 a0 6e c2 3c 63 db ab bf 6e a8 c5 b6 cd 92 e8 bf
       -0.05440816990559694 -0.7679203576819995
0002d0 96 17 86 25 1e 79 ed bf 04 ef 8b 18 03 88 d8 bf
       -0.9210348828207653 -0.38330151936655477
0002e0 e0 10 f6 73 0b 8b d9 bf 5e a0 76 34 5c 66 ec bf
       -0.3991116173203988 -0.8874951386142234
0002f0 c6 79 58 49 a5 f6 e0 3f 4c 93 31 27 5d 87 e1 3f
       0.5301081116229447 0.5477739110470821
000300 e4 c0 c8 47 d8 6a da bf d8 5c e2 ff 71 3d e4 bf
       -0.41277129182982564 -0.6325006482828952
000310 40 ee 97 d7 d9 ff ea 3f 00 b6 83 2d ae c1 b1 bf
       0.8437318049249782 -0.06936157809442278
000320 d0 ea f8 e8 f7 07 ee bf d0 f3 28 66 43 71 ea bf
       -0.938472704910362 -0.8263260836898727
000330 1a 73 cb c5 0b 7e eb bf a8 bd e8 9a 6c 8c dc 3f
       -0.8591364730051254 0.4460708153519257
000340 b8 b3 7c fa 7d 07 e8 3f f4 cc 41 0a be 37 d6 3f
       0.7509145634008894 0.3471522426763862
000350 10 9c 6f 59 6b 95 cf bf de f3 57 70 32 5e ef 3f
       -0.24674741618147822 0.9802486604891063
000360 08 e8 d3 91 2a 5a e8 bf c0 53 d6 c6 15 8b 90 bf
       -0.761006626911013 -0.016155567418156158
000370 4a 73 6f 8b 00 6e ec bf 04 16 a1 3f 53 f5 e1 bf
       -0.8884279940935838 -0.5611969225653302
000380 72 60 b6 fa fa f8 e9 bf 98 37 06 8f 79 66 ca 3f
       -0.8116431137778035 0.20625228389365868
000390 78 fa c6 e0 4e 22 dd 3f d8 1e a9 4a bc 2d cc 3f
       0.4552190013018058 0.22014573712862417
0003a0 cc 81 9a bd ee 78 d9 bf 18 bf 85 0b c6 15 c9 3f
       -0.39800613895388604 0.1959769779455136
0003b0 f0 85 f2 eb 45 e9 b6 3f 00 7f 56 79 76 df b0 3f
       0.08949696550782682 0.06590977156019662
0003c0 10 be 0c 61 be ba c1 3f 88 3b ec 15 0b 41 ce 3f
       0.13851146448858787 0.2363599640889016
0003d0 14 df ba 31 74 15 e2 3f 0a 5f 39 b1 4b 34 e0 bf
       0.5651188823021323 -0.5063837491424874
0003e0 08 e1 7e fa 67 6c e3 bf b4 f2 b0 4f 0a cc e3 bf
       -0.6069831745617487 -0.6186572605580154
0003f0 d4 04 8d 1c 55 89 ef bf 53 25 d5 bb f8 c1 d5 bf
       -0.9855142171510587 -0.33996408789660854
000400 7a 69 40 97 7e 3f e0 3f 09 9e e1 c5 16 eb de bf
       0.5077507928975102 -0.4830986912188285
000410 69 e2 16 fa 3f f1 d8 3f 8e a9 24 98 f9 68 cd bf
       0.38972472594063007 -0.2297660820853022
000420 39 43 74 cf 36 f8 ee 3f 0e ca 6b 56 dc cc eb 3f
       0.9677995731200105 0.8687574088965577
000430 ea 7c 58 bf 23 89 e1 bf 46 80 01 0e 2d 52 ec bf
       -0.5479906785220952 -0.8850312493850729
000440 80 f3 a5 0d 12 4e b1 3f 04 ca 7d 82 f6 1c d9 bf
       0.06759751160821104 -0.39239275687501185
000450 c6 f7 24 ee 93 bb ec 3f 54 f2 c7 66 38 c0 d3 bf
       0.897897687078278 -0.30860719716273377
000460 aa 03 42 fe 71 e1 e4 3f 90 27 f1 10 a3 49 cb 3f
       0.6525201765035622 0.21318472220655993
000470 20 44 6e 54 4b fc e8 bf aa 02 0a 8b 5f d2 eb 3f
       -0.7807976388013493 0.8694303241355403
000480 3c 24 8c eb be 90 e3 bf 6c da 02 36 8f f0 d2 3f
       -0.6114191628013326 0.29593258165861047
000490 50 e1 39 94 9d 8b b2 3f 40 e1 74 e3 7c 98 cc bf
       0.07244286412049417 -0.22340355974461978
0004a0 80 35 6e 50 d5 d9 b3 bf fc 35 9c 0d 3c c3 e4 3f
       -0.07754262174258564 0.6488323465179628
0004b0 c8 1e 3a 3a e5 7a ed 3f 8c 25 f1 e9 d6 91 da bf
       0.9212518822905276 -0.4151513371076241
0004c0 4a 53 6c 96 92 17 f7 3f f0 e2 de cc 35 e7 b2 3f
       1.4432550311950814 0.07384048701977597
0004d0 69 df 13 af 11 3a e4 3f be 3d ac 3f 1a 1a f8 3f
       0.6320885104641835 1.5063726889819544
0004e0 ae e3 7a f1 52 ab db 3f 80 d4 f6 4f aa db fc 3f
       0.43233178693804575 1.803629219398573
0004f0 9b 88 65 d5 72 3e fd 3f 9c a2 11 57 6e 9d d4 bf
       1.8277462325864124 -0.3221088266641716
000500 f9 62 f4 ae f5 f1 f4 3f 48 87 9f f0 d6 99 92 3f
       1.3090721925893247 0.018164976536247296
000510 03 33 e9 1d 72 52 e5 3f be 62 5b b7 23 d3 ed bf
       0.6663141807744924 -0.932023866767018
000520 98 e1 b2 43 58 23 ea 3f 00 42 82 ad be 6d 72 bf
       0.8168145487061791 -0.004499192080530623
000530 8a fa c9 de ba f2 e6 bf 90 f2 0a ad e4 4f eb bf
       -0.7171301223132371 -0.8535025958768347
000540 00 89 c0 65 08 11 dd bf b0 43 78 92 ad 9a b1 bf
       -0.45416459976890167 -0.06876644922182495
000550 28 32 78 97 5b 17 e8 3f 10 76 82 1f 3c 99 bb 3f
       0.7528512915028545 0.10780692834165273
000560 b9 4d 65 c7 e1 99 ed 3f dc 98 9e 91 87 1c e6 bf
       0.9250344175765611 -0.6909826130038499
000570 f8 3c 1a a5 da d2 e9 3f 08 99 ae 98 a0 72 e5 bf
       0.8069890236528456 -0.6702425939627412
000580 58 09 0e e2 4f 68 eb bf e0 d3 0e 61 82 27 ed bf
       -0.8564834036954307 -0.9110729118025311
000590 08 1a 25 c8 d3 2c e2 bf 84 6b b5 72 ae ce e1 3f
       -0.567972079189361 0.5564796677020785
0005a0 d6 ee a8 d7 c9 f6 dc 3f 83 bd ee ae dc 64 fd 3f
       0.45256277142082746 1.8371245225242496
0005b0 94 90 0d 7f 78 df f8 3f ab 0d fe 7b 5e 67 ec 3f
       1.5545582736022299 0.8876182958342062
0005c0 90 7a dd 60 60 92 c8 3f 04 d9 14 ff 46 7c f2 3f
       0.19196705560439797 1.1553411449545488
0005d0 5a 40 a0 24 88 f0 d2 3f 49 84 eb ff 20 f1 e5 3f
       0.2959308965373616 0.6856846807896854
0005e0 44 f7 89 9e e8 10 d4 3f 4e 82 cf 69 bc 3b e8 3f
       0.3135320232612353 0.7572919909108096
0005f0 bc 7a 7e a5 5c 2c d4 bf 0a 77 a5 71 8a 09 e8 3f
       -0.31520763551263165 0.7511646480231502
000600 a5 9b a8 09 68 5a b5 3f b8 66 da 25 77 2e db 3f
       0.0834107421475055 0.42471102425188745
000610 60 e6 68 fc ea 21 df 3f 64 03 9e 0c 20 c6 d2 3f
       0.4864451851786722 0.293342602082751
000620 00 ad e7 a8 07 04 dc 3f 44 ef d9 b3 e2 ba d2 3f
       0.43774596686007783 0.2926565891609594
000630 88 a5 3d 29 5f f0 d4 3f f0 e4 ab fd d1 a2 cd bf
       0.32717112567350926 -0.2315313805227457
000640 df b6 c9 9f ee 7c d2 bf e4 20 a6 b9 cb d7 e0 bf
       -0.28887525181094803 -0.5263422609287116
000650 b4 80 90 6d 82 6a de 3f 3e 28 c1 6a 38 fc e4 bf
       0.47525082301764177 -0.6557886204766488
000660 8d 98 4a 89 5b 6f e0 3f b2 61 37 63 3a a3 e0 bf
       0.5135934525940385 -0.5199253022974999
000670 92 de 06 6b 5a 1c f0 3f 50 52 6c 1a 9e e9 a8 bf
       1.0069221668945016 -0.048657360768775804
000680 31 8d 2e 15 51 3c f1 3f 48 a4 4c bc 40 5c d0 bf
       1.077225764028139 -0.2556306685315275
000690 7a ff bb d0 8e 01 e7 3f 56 b3 4f 52 95 bb e6 bf
       0.718940169987021 -0.7103983504908722
0006a0 69 a2 0f d4 be d3 e9 3f 5e 99 7e 0f e3 56 c5 bf
       0.8070978299920856 -0.16671407944267974
0006b0 e4 57 4d 9f 8e 75 bb bf f0 65 27 de bf e6 e4 bf
       -0.10726252927028629 -0.6531676615660995
0006c0 40 0f c5 6a fc d1 c3 bf 48 68 38 c4 29 8b ea 3f
       -0.15484576428763752 0.829487689249853
0006d0 0a d9 44 8c a4 d2 e6 3f 80 0d 81 3f 0f fa e2 bf
       0.7132132281901999 -0.5930248489679997
0006e0 4e 2d 6e 46 fd ce d5 3f 10 d2 e7 de f3 83 c6 bf
       0.3407586276814144 -0.17590187439022076
0006f0 e2 7e 28 31 43 ad ed bf a0 1a eb 9b e2 d4 b2 3f
       -0.9274002037163565 0.07356087023354485
000700 80 bf cc 21 fc 4d e9 bf fc b3 0f f2 bf bf da bf
       -0.7907696399833952 -0.41795347822954887
000710 dc b6 17 d5 f1 d9 d5 3f e6 6f 7b c9 cb 12 e7 bf
       0.34142728624179397 -0.7210444388579134
000720 79 20 6b e9 ae 62 cd bf a0 6d 58 73 19 fd a2 bf
       -0.22957407376657438 -0.03708724530244045
000730 f0 7a fa fb 38 30 eb bf 6e be 9c b8 06 19 ed bf
       -0.8496365472272753 -0.9093049627026184
000740 95 1f 91 96 5b 53 ee 3f f4 77 f8 11 dc 79 d5 3f
       0.9476755085715803 0.3355627227300595
000750 a0 f9 27 6a a3 2e fa 3f 84 59 9c 69 fb 6b fa 3f
       1.63638631312606 1.6513628125590865
000760 7d ce eb 76 1e a2 c1 3f 21 11 7f a9 05 43 ef 3f
       0.13775997931189812 0.9769314108348547
000770 ac 19 07 ea bd 9b e9 bf b8 59 df dd 64 8a e9 3f
       -0.8002614565710267 0.7981438001104868
000780 27 2e d9 ff ee 36 d1 3f 5f b4 07 02 f3 94 ed bf
       0.26897788033667996 -0.9244322814607918
000790 fa 29 29 05 69 4b d9 3f 9f 0c 38 5a 96 20 c6 3f
       0.3952276754759222 0.17286948590490156
0007a0 ea 29 0d 55 46 f3 ed 3f 8c ec 88 9a ed c5 fa 3f
       0.9359466229591906 1.6733222996252008
0007b0 75 03 36 89 e5 d7 ec 3f a0 1e 64 62 cb cc 82 3f
       0.9013545684721139 0.009179676952512594
0007c0 3d c5 f4 dd 5e 5a e1 bf 90 fc d1 45 b0 08 c4 bf
       -0.5422815642433886 -0.1565151539725531
0007d0 62 b9 ad 1b 28 48 e9 bf e0 6a bd b8 68 68 d5 bf
       -0.7900581875417567 -0.33449762383467707
0007e0 40 7e 35 a6 40 f1 e6 3f e0 24 a6 5c cf f6 ee bf
       0.7169497724789338 -0.9676281747389588
0007f0 fa 95 65 ac d3 66 ea bf fc d7 b6 61 db 67 d0 bf
       -0.8250521056294808 -0.25633892576604445
