weights2.npy (npy, 1408 bytes, 1 tensors)

array f8 [10, 16]
00000000: 80a8 681e 83ed efbf a7f6 9ed1 8e78 97bf
00000010: 2c67 5661 476e d13f cd92 b78c 3112 c83f
00000020: a982 0f83 74fd cdbf 39ff c886 2fa2 e7bf
00000030: 6043 0d0d 54e9 bdbf e450 16a0 6956 e2bf
00000040: 1906 6903 7bfd d9bf 4eef 5445 6ec0 f6bf
00000050: 7d41 49eb c95d f4bf 71fb c239 65d1 dfbf
00000060: 0834 e108 a06e e2bf 094f f5ed 4ee0 e8bf
00000070: 8845 9463 bfde edbf 434f c95b b171 f5bf
00000080: d163 bf16 0efc d2bf 281d eb62 5296 c23f
00000090: dd04 72d6 dd68 d63f c838 612c d4ca cc3f
000000a0: 509c 7fca 8f5e 78bf 9cbb f986 8850 eabf
000000b0: f283 1ffa 0402 b73f 8cf3 d91f a251 e3bf
000000c0: c6ed f5d1 2d1c f2bf be96 6888 4da7 f3bf
000000d0: 853d 9e60 77b0 963f d478 5caf e327 bb3f
000000e0: df1f b5e4 9160 c7bf ba4e 113d 7171 be3f
000000f0: 8d05 2748 5d7c f0bf de47 763f 05fe e2bf
00000100: 72f4 8b69 0608 e0bf 14d0 47b5 ceea d2bf
00000110: 0c6f cd43 3557 cbbf a828 f7da a623 de3f
00000120: 258b 588f 6f82 c23f e1a5 6997 9815 f1bf
00000130: b6cb 28fe 0f0f bdbf 05c2 8bbf 7aa5 dbbf
00000140: 23d9 5687 0a66 eabf 6ec0 d861 5ddc ecbf
00000150: 10f0 6ce2 f2dc e5bf da5d 71f6 f5fa e8bf
00000160: 23a5 3291 9b80 e23f c9d5 fefb fa58 e1bf
00000170: f9d4 1fbe 6cf7 e4bf c7c1 02a5 d449 cebf
00000180: 9748 3aeb 3533 eabf aab7 be4f bb7b a83f
00000190: c54b 008a e07e bebf 735e 33e4 a87d d2bf
000001a0: 9968 a1ef 5e7b efbf 6ba7 7f2c 0bd1 efbf
000001b0: d83d 2e03 319d ba3f 2be1 60cf 4b7a edbf
000001c0: 1643 adc1 8e62 d2bf c1ed 025f 5275 f2bf
000001d0: 1d62 a1cf 2da5 e1bf 3345 5e63 14b9 be3f
000001e0: 33a4 ab9f 548f d9bf 69eb abf3 aaaf aabf
000001f0: 51d8 a963 d922 e8bf e9f7 cea3 6eb5 f0bf
00000200: cc62 4b57 3e3c c5bf d524 25d5 d89a b63f
00000210: 244f b7ec 7bc2 d1bf a979 bbc5 ab94 e13f
00000220: ef09 9056 091f f4bf 847d fbd9 dce9 f1bf
00000230: 9846 7c5f 7098 d73f b6f2 8cce 4301 bdbf
00000240: e563 293a 791c d5bf d979 13f1 d63d f2bf
00000250: d48b f604 c693 d33f b14b 114c 1992 ddbf
00000260: 4039 4770 334d f1bf 4391 d5ad 6753 c9bf
00000270: b2be 2f3f b61b d0bf df7d 8717 d2b8 b0bf
00000280: b306 3814 d985 e7bf f92e bc79 7ca6 ac3f
00000290: af51 e14b b44d e3bf 02ca a153 f0c4 d93f
000002a0: 292d 6c8b c39f debf 0730 b219 0246 c63f
000002b0: 586c 591c 8a46 ea3f 9cc0 a118 3778 ecbf
000002c0: 1447 16d2 3d5e e4bf 178f f3f2 4afc f0bf
000002d0: 634e 67a1 4202 c93f 0b03 17e0 3bd4 b5bf
000002e0: d9ca 3c0f ac85 dabf f69c 481d 643b c33f
000002f0: 80f4 5f38 37b1 eebf ab4e 7441 130d cbbf
00000300: b301 6841 6b05 e0bf 01e1 794c 89bd d7bf
00000310: a54c 00de d3db d4bf 15fd 6d7e cf0e e3bf
00000320: 495a 8452 bd63 e5bf e16d a6e0 2d6e e1bf
00000330: 64e3 7fd9 5b30 c63f 9723 93e3 6a9e eabf
00000340: f95b 84c6 44dc bfbf 043a 820d 683e f9bf
00000350: 6e20 7b07 bdd0 d4bf 46e6 60ba 436e d9bf
00000360: 0b8f ba9e cca0 e3bf ee16 5775 aec7 d7bf
00000370: 00b4 1a23 47f1 d4bf cc97 d30e 3275 f2bf
00000380: 1824 1eea 363e b5bf 61d6 6d10 105b ccbf
00000390: e7b4 d5e6 bd76 e0bf 841c a68c 5410 ec3f
000003a0: c21a db68 1201 d7bf 3580 d038 5dc7 ca3f
000003b0: 025a 52f1 49a5 d43f 4e87 f8e6 0169 e5bf
000003c0: 5ff9 65a2 6c95 f3bf 242e 6300 ae24 f0bf
000003d0: 0f13 3dca cdf4 b73f 5754 f8b1 7ef0 d4bf
000003e0: 0b87 4e34 2aee c0bf 4b98 7c2a 79e0 cdbf
000003f0: dce1 c3f5 6c21 f3bf 3ac8 cf09 290d e0bf
00000400: 4a1b 61cf f310 ecbf 68c7 4d09 4cd7 a33f
00000410: deff 84f3 9b4c d0bf 8eea 4f75 091c a43f
00000420: 0327 f598 6090 d0bf ac7f c329 9af5 e5bf
00000430: 0278 b842 e135 ca3f 76b2 bf54 086a f4bf
00000440: f66b e538 ebae c73f 5d7b 52c6 1904 f0bf
00000450: 45db 71fe dfeb cfbf a8b9 b3c6 812e e4bf
00000460: 8199 ed54 bf05 dfbf ce24 046e 309d d53f
00000470: e34d 74dd 9334 f1bf c65a e2f9 9a1a e9bf
00000480: 2280 410b d776 d2bf 4a78 b883 d710 d0bf
00000490: 3950 eeae ec80 b4bf 280b b7ca d875 c83f
000004a0: 5a59 0148 37eb e6bf be67 7307 5e60 dd3f
000004b0: 4e8f 4def 004b d5bf 34b4 900d 577a ecbf
000004c0: dc02 3419 4e90 e3bf 22e0 73e5 759a f6bf
000004d0: 76b0 e479 5c6d d5bf f6de c91d decb d23f
000004e0: d109 1dfd c630 e8bf 1251 ca29 7229 dcbf
000004f0: 3e8e 7d12 6170 e9bf 8c6d 5b31 154f eabf
-0.9977431863710677 -0.02292082933830977 0.2723558855592383 0.18805522318793635 -0.23429733657305477 -0.7385480530283309 -0.1168415576805848 -0.5730484129622053
-0.40609622319252164 -1.421980162455799 -1.2728976431718302 -0.4971554817274671 -0.576004044860043 -0.7773813865300961 -0.9334408707529045 -1.3402570329098615
-0.2966342184204765 0.145212457942969 0.3501505464738111 0.22493984381657683 -0.005949556048995566 -0.8223307262650112 0.08987456423302811 -0.6037150022599334
-1.1318796350086457 -1.2283454254588118 0.022157540580847197 0.10607741385726693 -0.1826345793472219 0.11891849270733248 -1.0303623980001675 -0.593508361768041
-0.5009796201189956 -0.2955815096204344 -0.2135988789622093 0.47092601188036065 0.14460558413801397 -1.067772475677309 -0.11351108508169613 -0.4319750662389484
-0.8249561923355809 -0.9018999968593684 -0.6832212850927153 -0.7806348622643171 0.5781991802115595 -0.5421118661676526 -0.655203219734772 -0.23662813241163702
-0.8187512964525635 0.04781899784516892 -0.1191234909932027 -0.2889196613809652 -0.9838099174769638 -0.9942680234064317 0.1039610512509549 -0.9211787271843027
-0.287265481126313 -1.1536430083641422 -0.5514134459763828 0.12001159120543008 -0.3993732032091117 -0.05212148880487783 -0.7542540499259848 -1.04429496753391
-0.16590098631311034 0.08830027774560574 -0.2774953662567319 0.549398313709209 -1.2575772649148538 -1.1195953860222696 0.36867913555861653 -0.11330055039156658
-0.32986288719035733 -1.1400975625070855 0.30589437946963227 -0.4620421641204145 -1.0813478837840904 -0.19785781848907832 -0.25169140024716363 -0.0653201396412366
-0.7350888628863771 0.05595768915199346 -0.6032353860887748 0.40264518897234336 -0.47850121131405615 0.17401148085298265 0.8211107782075358 -0.8896747094240882
-0.636504087759223 -1.0615949144639154 0.1953814781287405 -0.08526968213028512 -0.41440869796785545 0.15024997167458992 -0.9591327763624946 -0.21133652397167188
-0.5006614949671103 -0.3709433791004955 -0.3259172122936412 -0.5955579251603093 -0.6684252368602951 -0.5446996104905645 0.17335079307647583 -0.8318380780047957
-0.12445478293044222 -1.577735951202727 -0.32524038057864046 -0.39735501481081703 -0.6133788204356007 -0.3715625902080849 -0.3272264330688017 -1.1536121920739673
-0.08298056808247656 -0.2215290146083815 -0.5144948490612052 0.8769934413002294 -0.3594404243453192 0.20920911096709607 0.32258843008585825 -0.6690682898663256
-1.2239805549321188 -1.008955003274317 0.09357916057076586 -0.3271786439884798 -0.13226821474113878 -0.2334128816084465 -1.195660552997757 -0.5016064826616067
-0.8770693827035327 0.038751960883827874 -0.25467585354999567 0.03927640492471084 -0.2588120931364843 -0.6862307372757548 0.20476928479996565 -1.2758868513584765
0.1850255992711422 -1.0010011431656587 -0.2493858330160156 -0.6306771164798208 -0.48472579282533707 0.337719066083605 -1.0753363276061172 -0.7844977264929518
-0.28850341891484466 -0.2510279451688616 -0.08009223242544374 0.19109640024370234 -0.7162128836014674 0.4590067932855354 -0.3327028595870062 -0.8899340882250102
-0.6113653652428996 -1.4127100909227086 -0.3347998800625257 0.2936930933860674 -0.7559542602178287 -0.44002966004451693 -0.7949681626454959 -0.8221536602026602
